footsteps_planning_right.onnx (onnx, 500362 bytes, 6 tensors)

mu.0.weight f4 [400, 8]
0	0x3d306bf1	0.04307169
1	0x3f11e355	0.56987506
2	0xbf03a634	-0.5142548
3	0xbe01b57e	-0.1266689
4	0x3d2bd4a9	0.041950855
5	0xbe0f10a9	-0.13971199
6	0x3ea0a1df	0.31373498
7	0xbe2182e0	-0.15772581
8	0xbef7a43e	-0.48367494
9	0xbe1e6bad	-0.15470763
10	0xbdcded2d	-0.10055003
11	0x3ebd5a83	0.36983117
12	0xbdb9529b	-0.09048959
13	0x3e27683e	0.16348359
14	0x3ea3d419	0.31997755
15	0xbdf52634	-0.11970177
16	0xbeb45f04	-0.3522874
17	0xbe53c7c8	-0.20681679
18	0xbde4bb8c	-0.11168584
19	0x3bdac76a	0.006676604
20	0x3e82f182	0.2557488
21	0xbdecb54e	-0.115580186
22	0xbdc4bd88	-0.09606463
23	0x3dc4894c	0.095965
24	0x3ec9ecdb	0.3943852
25	0x3f5e794f	0.8690385
26	0xbe3bab65	-0.183271
27	0x3ea0751d	0.3133935
28	0xbe85a11b	-0.26099476
29	0xbdbe7518	-0.092996776
30	0xbe8682be	-0.26271623
31	0x3ddc4614	0.10755554
32	0xbf18596e	-0.5951146
33	0xbeacb119	-0.33728865
34	0xbdc6a2b4	-0.09699002
35	0x3d3aa6c4	0.045569196
36	0xbec3f72e	-0.3827452
37	0xbd6947c0	-0.05695319
38	0x3e071c38	0.13194358
39	0xbe13dbca	-0.14439312
40	0x3dd24583	0.102671646
41	0xbbaf4d31	-0.005349778
42	0x3dd8dd5f	0.10589098
43	0x3ecc636e	0.3991961
44	0xbe8e4dab	-0.2779363
45	0xbd577a78	-0.05260703
46	0xbde60960	-0.11232257
47	0xbe68d457	-0.22737251
48	0xbf2f1d1f	-0.6840381
49	0x3ec78fe0	0.38976955
50	0xbe82664c	-0.2546867
51	0xbf7859b9	-0.97011906
52	0xbdfca9b9	-0.123370595
53	0x3eb16a71	0.3465152
54	0xbe1aad70	-0.15105224
55	0x3e5809ea	0.21097532
56	0x3f25cfcb	0.6477019
57	0x3f14c139	0.58107334
58	0x3d36ea31	0.044656936
59	0x3dc8ca62	0.098042265
60	0xbea4d91b	-0.32196888
61	0x3e03ba90	0.12864137
62	0x3e5ade76	0.21373925
63	0xbb843380	-0.0040344596
64	0x3f18bbe0	0.59661674
65	0x3e0a9fb5	0.13537486
66	0xbc94d4d8	-0.018167898
67	0x3f13dbe3	0.57757396
68	0xbe1b3691	-0.15157534
69	0xbd90f8c4	-0.07078698
70	0xbe65a4f8	-0.22426212
71	0xbe59c6f9	-0.21267308
72	0x3da87009	0.08224494
73	0x3f36a04b	0.7133834
74	0xbe7aaef4	-0.24480802
75	0x3e1b72bc	0.15180486
76	0xbefcf0f3	-0.4940258
77	0xbe9fe00c	-0.31225622
78	0x3c836630	0.016039938
79	0x3e6cd7ba	0.23129168
80	0x3f0fd866	0.5618957
81	0x3e1520d0	0.14563298
82	0xbe33dc89	-0.17564596
83	0xbe455418	-0.1927036
84	0xbdc18fa7	-0.09451228
85	0x3eb4dcc9	0.35324696
86	0xbd7eb1e0	-0.062181354
87	0xbe60a5cd	-0.21938248
88	0xbeacddcc	-0.33762968
89	0xbdc6c2bc	-0.097051114
90	0x3ed9ce72	0.42540318
91	0x3e2864c2	0.16444686
92	0xbf2714ed	-0.65266305
93	0xbe8b480d	-0.27203408
94	0x3e0eb360	0.13935614
95	0xbea20d1d	-0.3165063
96	0xbe8d6de1	-0.27622893
97	0x3b8fa266	0.004383373
98	0x3da6a663	0.081372045
99	0xbf163b54	-0.5868428
100	0x3e68e1da	0.22742406
101	0xbea2ecc7	-0.31821272
102	0x3e9b66af	0.3035178
103	0xbea917a0	-0.33025837
104	0x3f2980b2	0.66212
105	0x3f20dc4e	0.6283616
106	0x3e174110	0.14770913
107	0xbd4fca0c	-0.050729796
108	0x3d3cae82	0.04606486
109	0xbe0e2c69	-0.13884129
110	0xbe884ac4	-0.26619542
111	0x3dbb9590	0.09159386
112	0x3eaa3192	0.33240944
113	0x3e4a1fd4	0.19738704
114	0x3e56469a	0.2092537
115	0xbed30e1c	-0.41221702
116	0xbea3b6af	-0.31975314
117	0xbe402ce3	-0.18767123
118	0x3d456e50	0.048200905
119	0x3e8a0c2f	0.2696242
120	0xbe24d29d	-0.16095968
121	0x3d0e5764	0.03475131
122	0xbd8edae1	-0.069753416
123	0x3f1b2cee	0.6061543
124	0xbeb30972	-0.34968144
125	0xbe7ce7f8	-0.24697864
126	0x3d1421a8	0.03616491
127	0x3c17ec80	0.009272695
128	0x3d0911ef	0.03346437
129	0x3ea36c06	0.31918353
130	0xbf091009	-0.5354009
131	0x3d7fbd4b	0.062436383
132	0xbe006843	-0.12539773
133	0x3e9846d9	0.29741552
134	0xbd7b0d08	-0.061291724
135	0x3e4bc166	0.19897994
136	0xbbf6be0b	-0.007529979
137	0x38b398f0	8.563872e-05
138	0x3cc50f1a	0.024055053
139	0xbd06fd15	-0.0329562
140	0xbc57d619	-0.013173603
141	0xbda6f680	-0.08152485
142	0x3bea0b00	0.0071424246
143	0xbdcf5194	-0.10122982
144	0x3e666c1d	0.2250218
145	0xbf245e44	-0.6420634
146	0x3e2b7661	0.16744377
147	0xbc414655	-0.011796554
148	0x3df66c9d	0.12032435
149	0x3e830857	0.255923
150	0x3e6b79ee	0.22995731
151	0xbc9d1d80	-0.019179106
152	0x3efbaa10	0.49153185
153	0xbeca6c4e	-0.39535755
154	0xbd318521	-0.043339852
155	0xbe3af472	-0.18257311
156	0xbea289b8	-0.31745696
157	0x3e9074f9	0.28214243
158	0xbd16ced8	-0.036818355
159	0x3c01f800	0.007932663
160	0x3efb92e2	0.491355
161	0xbd39d262	-0.045366652
162	0x3e678717	0.22610126
163	0xbe7f410f	-0.24927162
164	0x3f1998af	0.599986
165	0x3dfd08e8	0.12355214
166	0x3cb803a0	0.022462666
167	0xbd9e7920	-0.077379465
168	0xbe8ff2ef	-0.2811503
169	0xbdb98567	-0.090586476
170	0x3e00204b	0.12512319
171	0x3ea07035	0.31335607
172	0xbee69185	-0.45032898
173	0x3d6be680	0.05759287
174	0xbda1f210	-0.07907498
175	0x3d327118	0.043564886
176	0xbe67077a	-0.22561446
177	0xbd823468	-0.06357652
178	0xbeaa49c0	-0.33259392
179	0x3edc2685	0.42998138
180	0xbd6db6ee	-0.058035783
181	0xbe5bc6bb	-0.21462528
182	0x3e6af76a	0.22945943
183	0x3e01ef2a	0.1268889
184	0xbedbf52d	-0.42960492
185	0x3ee63184	0.44959652
186	0xbe27fce6	-0.16405067
187	0xbcfb5204	-0.030678757
188	0xbd54f65e	-0.051992767
189	0x3e89989b	0.2687424
190	0xbe75112a	-0.23932329
191	0xbe59ab16	-0.2125667
192	0xbc9ec349	-0.019380229
193	0x3f09b001	0.53784186
194	0x3e5f31c4	0.21796328
195	0xbeba884c	-0.3643211
196	0x3e1d61ec	0.15369385
197	0xbe8666f4	-0.26250422
198	0x3e9893b5	0.29800192
199	0xbe0ed00d	-0.13946553
200	0xbe9e5479	-0.30923823
201	0xbed3a7d8	-0.41338992
202	0xbe3851d2	-0.17999962
203	0xbeecf1a1	-0.46278098
204	0xbe82bd68	-0.2553513
205	0x3ded4860	0.1158607
206	0xbe3458db	-0.1761202
207	0xbd14a110	-0.036286414
208	0xbdf14281	-0.11780263
209	0xbea646ac	-0.32475793
210	0xbf39bb48	-0.72551394
211	0x3ecf7e03	0.40525827
212	0x3e442f2b	0.19158618
213	0x3e646ec6	0.22307882
214	0x3e4afe76	0.19823632
215	0xbde39588	-0.11112505
216	0xbd4c2486	-0.04983952
217	0x3e4ed9e5	0.20200308
218	0xbea9e6a3	-0.33183774
219	0x3ee4b08a	0.4466594
220	0xbe197224	-0.14984947
221	0xbd7baa80	-0.0614419
222	0xbe0f1000	-0.13970947
223	0xbd360548	-0.04443863
224	0xbf30eb0c	-0.69108653
225	0xbec90e20	-0.3926859
226	0x3d857233	0.065159224
227	0xbe9ff205	-0.31239334
228	0xbef851ea	-0.48499995
229	0x3e22a8ae	0.15884659
230	0xbe411899	-0.1885704
231	0x3e471d2e	0.19444725
232	0x3c99b5bf	0.018763421
233	0x3f2f1b7b	0.68401307
234	0x3dc52d03	0.09627726
235	0xbe7e792c	-0.24850911
236	0xbee7fd71	-0.45310548
237	0x3e9b5adf	0.30342767
238	0x3e811c77	0.2521703
239	0x3eb378c3	0.3505307
240	0x3e52202e	0.20520088
241	0xbd6b83e4	-0.057498828
242	0x3f0058a5	0.5013526
243	0xbe713122	-0.23553899
244	0x3d8ab624	0.06773022
245	0xbe895411	-0.2682195
246	0xbd2a65c8	-0.041600972
247	0xbcc3e810	-0.023914367
248	0xbe7c09e5	-0.2461315
249	0xbf19f02a	-0.60132086
250	0x3e18131a	0.14851037
251	0xbe47320b	-0.19452684
252	0xbda91cac	-0.08257422
253	0x3e369fda	0.17834416
254	0x3e1900ba	0.14941683
255	0xbe37bb4b	-0.1794254

mu.0.bias f4 [400]
0	0x3de18471	0.11011589
1	0xbede9b87	-0.43478033
2	0xbe27f6ad	-0.16402693
3	0xbeadf5a5	-0.33976474
4	0xbef99047	-0.48742887
5	0x3dfb322b	0.12265428
6	0xbf2af0a0	-0.66773415
7	0xbd926302	-0.071477905
8	0xbda93944	-0.08262876
9	0xbb7f671c	-0.003897137
10	0xbe4043c8	-0.18775856
11	0xbe7ac353	-0.24488573
12	0xbdf1da39	-0.11809201
13	0xbe1344a3	-0.14381652
14	0xbe661150	-0.22467542
15	0xbe07420f	-0.13208793
16	0x3b349bd6	0.0027558706
17	0xbd8d9df2	-0.06914891
18	0xbcac4573	-0.02102921
19	0xbc3ef362	-0.011654707
20	0xbe8ddb98	-0.277066
21	0xbde960e9	-0.11395437
22	0x3d2de1b7	0.042451587
23	0xbefe63da	-0.49685556
24	0xbec97a26	-0.39351004
25	0x3dd48a4e	0.10377942
26	0xbe596aeb	-0.21232192
27	0xbe06142a	-0.1309363
28	0xbf18e674	-0.59726644
29	0xbe239910	-0.15976357
30	0xbe89bcc8	-0.2690184
31	0xbd8d8d98	-0.069117725
32	0x3e99ceda	0.30040628
33	0xbe381ba7	-0.17979299
34	0x3de8b0c6	0.11361842
35	0xbe5a881f	-0.21340989
36	0xbe0f64a6	-0.14003238
37	0xbe46fd4b	-0.19432561
38	0xbe0ebec5	-0.1393996
39	0xbe7f60f3	-0.24939327
40	0xbed43d95	-0.41453233
41	0xbe77d93c	-0.24203962
42	0xbea5834f	-0.32326743
43	0xbdf02a2c	-0.11726794
44	0xbe49f567	-0.1972252
45	0xbe039db1	-0.12853123
46	0xbe840214	-0.25782835
47	0xbe3f3f9f	-0.18676613
48	0xbc8fa7b7	-0.017536027
49	0xbdf827f0	-0.121169925
50	0x3c8d774b	0.017268797
51	0xbf215c24	-0.6303122
52	0xbe92166e	-0.28532737
53	0x3ba767ed	0.0051088245
54	0xbed5ff62	-0.41796404
55	0xbe042090	-0.12903047
56	0xbd23663a	-0.039892413
57	0x3c0a80bc	0.008453544
58	0xbeca85e3	-0.39555272
59	0xbdbf6d94	-0.09347072
60	0xbe85fb5c	-0.26168334
61	0x3db51d33	0.0884346
62	0xbe9750da	-0.29553872
63	0x3d0d23c3	0.034457933
64	0xbdb66a4b	-0.089069925
65	0xbe45a1a3	-0.19299941
66	0xbe4439d5	-0.19162686
67	0xbe9e852c	-0.30960977
68	0xbdcd9880	-0.10038853
69	0xbea910da	-0.3302067
70	0xbea4b604	-0.32170117
71	0xbe4e03a6	-0.2011858
72	0xbd14106a	-0.036148466
73	0xbe5ce4a8	-0.215716
74	0x3e4c681f	0.19961594
75	0xbe897272	-0.26845127
76	0xbe43d138	-0.1912278
77	0xbef2d434	-0.47427523
78	0xbe14dfb1	-0.14538456
79	0xbdf8b58a	-0.12144001
80	0xbe7249c1	-0.23660947
81	0xbebab189	-0.36463574
82	0xbea086af	-0.31352755
83	0xbec3fa31	-0.38276818
84	0xbe644586	-0.22292146
85	0xbe8cf140	-0.2752781
86	0xbe95b672	-0.29240757
87	0xbe2b9e73	-0.16759662
88	0x3d11c67e	0.035589688
89	0xbee0c895	-0.43903032
90	0x3e264cd8	0.16240251
91	0xbd97f766	-0.074202344
92	0xbe9c92b4	-0.30580676
93	0xbe90e778	-0.28301597
94	0x3e002c44	0.12516886
95	0xbcdb1582	-0.026743654
96	0x3c95a85c	0.018268757
97	0xbed91755	-0.42400613
98	0xbeb531e3	-0.35389623
99	0xbe74f590	-0.239218
100	0xbde7486a	-0.11293109
101	0xbea9f269	-0.33192757
102	0xbdb9dd50	-0.09075415
103	0xbe740e00	-0.23833466
104	0xbec2513e	-0.37952608
105	0xbe5e2169	-0.21692432
106	0xbe397f9e	-0.18115088
107	0xbe630ae2	-0.2217212
108	0xbec09121	-0.37610725
109	0xbdde4203	-0.108524345
110	0x3cbc899a	0.023014832
111	0xbe8510eb	-0.2598947
112	0xbe3accb2	-0.18242148
113	0xbea9f95a	-0.33198053
114	0xbedae37f	-0.4275169
115	0xbf17c191	-0.59279734
116	0xbe95e5f3	-0.29277
117	0xbec313b9	-0.38100985
118	0xbd4cc349	-0.049990926
119	0x3cd0b9b3	0.025479173
120	0x3d0f0cdc	0.034924373
121	0xbe96dcc4	-0.29465306
122	0xbf0d9dfd	-0.55319196
123	0xbedc232c	-0.42995584
124	0x3d8da72f	0.06916653
125	0xbcb22ce1	-0.021749916
126	0xbecce8aa	-0.4002126
127	0xbe37adb6	-0.17937359
128	0x3c5d8164	0.013519619
129	0xbe9e36c4	-0.30901158
130	0xbecdc491	-0.4018903
131	0xbe672de1	-0.22576095
132	0xbe1a0b64	-0.15043408
133	0xbd5d2361	-0.053988818
134	0xbedaff3a	-0.42772847
135	0x3e2c7cd1	0.16844489
136	0xbe5817ff	-0.21102904
137	0xbdacf11e	-0.08444427
138	0xbee0975a	-0.43865472
139	0x3dba8144	0.09106687
140	0xbed2b710	-0.4115529
141	0x3dbe174f	0.092817895
142	0xbd06bab8	-0.032892913
143	0xbe4fdaa4	-0.20298249
144	0xbecaaa73	-0.39583167
145	0xbea9fead	-0.33202115
146	0x3d15dfa4	0.036590233
147	0xbe85d375	-0.2613789
148	0x3e0a8bfa	0.1352996
149	0xbe12b67d	-0.14327426
150	0xbe2f9d06	-0.17149743
151	0xbe4728dd	-0.19449182
152	0xbe5da026	-0.21643123
153	0xbc637bcf	-0.013884499
154	0xbdc79d08	-0.09746748
155	0xbe870233	-0.26368865
156	0xbeab7ac6	-0.33492106
157	0xbdeb9c4d	-0.115044214
158	0xbed8b40e	-0.4232487
159	0xbe7f9de6	-0.24962577
160	0xbdd5ed4c	-0.104456514
161	0xbeb6e265	-0.357196
162	0xbe92ead3	-0.28694782
163	0xbdd9350d	-0.10605822
164	0xbeeb7b03	-0.45992288
165	0x3ad88825	0.0016520066
166	0xbe8f265f	-0.27958962
167	0xbe8fc00c	-0.28076208
168	0xbee0e496	-0.43924397
169	0xbde494f7	-0.11161225
170	0xbee3aa12	-0.4446569
171	0xbed227f3	-0.41046104
172	0xbe0bbb26	-0.1364561
173	0xbd64c32b	-0.05585019
174	0xbd19e29c	-0.037569627
175	0x3b87bec2	0.004142613
176	0xbe1970ea	-0.1498448
177	0xbe9c7ba4	-0.3056308
178	0xbbf95b15	-0.007609735
179	0xbeab6d75	-0.33481947
180	0xbf11e7b0	-0.5699415
181	0xbf23d912	-0.640031
182	0xbed389fa	-0.41316205
183	0xbecb249f	-0.39676377
184	0xbea85b73	-0.3288227
185	0xbd54f284	-0.051989093
186	0xbec13e7b	-0.3774298
187	0xbeb7990c	-0.35858953
188	0x3d107599	0.0352684
189	0xbe682924	-0.22671944
190	0xbeb08480	-0.3447609
191	0x3e47e407	0.1952058
192	0xbee6315d	-0.44959536
193	0x3e28c4bb	0.16481297
194	0xbda94c41	-0.082664974
195	0xbf3ea4ed	-0.74470407
196	0x3d5e3520	0.054249883
197	0xbe82d5bc	-0.2555369
198	0xbe3e817c	-0.18604082
199	0xbe7551dc	-0.23957008
200	0xbeb16811	-0.3464971
201	0xbddbda8a	-0.107350424
202	0xbee663fb	-0.44998154
203	0x3df5592e	0.119799
204	0xbf33202e	-0.6997098
205	0xbec73203	-0.38905343
206	0x3e05f810	0.1308291
207	0x3cd12b68	0.025533393
208	0xbe4bcf28	-0.19903243
209	0xbea98c5f	-0.33114907
210	0xbd42a0d2	-0.04751665
211	0xba68e21c	-0.00088837906
212	0x3c50fd9d	0.012755779
213	0xbe39a3e6	-0.18128929
214	0xbdb78f61	-0.08962894
215	0x3d6f6833	0.05844898
216	0xbea4c2f6	-0.32179993
217	0xbe8d7011	-0.27624562
218	0x3d2fcab5	0.042917926
219	0xbc15e0b4	-0.009147812
220	0x3e6369ed	0.22208376
221	0xbdf1f93a	-0.11815114
222	0xbee80818	-0.45318675
223	0xbd892fc3	-0.06698563
224	0xbe3031c6	-0.17206487
225	0xbea52930	-0.32257986
226	0xbe296cbb	-0.16545384
227	0xbee0552e	-0.43814987
228	0xbec600d6	-0.38672513
229	0xbeca8186	-0.39551944
230	0x3b931062	0.004488037
231	0xbe2ff68b	-0.17183892
232	0x3d1cd77e	0.038291447
233	0xbd9e778d	-0.07737646
234	0xbe034d71	-0.1282251
235	0x3ce336e1	0.02773613
236	0xbe52cb00	-0.20585251
237	0xbed56052	-0.4167505
238	0xbefa5a80	-0.4889717
239	0xbea0516b	-0.31312117
240	0xbd0b2c9c	-0.03397809
241	0x3e8e1086	0.2774698
242	0xbf12fcc2	-0.5741693
243	0x3d0b2bd8	0.03397736
244	0xbe9404e8	-0.28909993
245	0x3e0cd685	0.13753708
246	0xbd995974	-0.07487765
247	0xbed3cc45	-0.41366783
248	0xbe559973	-0.20859317
249	0xbe16d9e1	-0.14731552
250	0x3e63ea92	0.2225745
251	0xbd209c14	-0.039211348
252	0xbe0110c2	-0.12604049
253	0xbec0e384	-0.3767358
254	0xbed8aa66	-0.42317504
255	0xbe2dacb4	-0.16960412

mu.2.weight f4 [300, 400]
0	0xbdab69b6	-0.08369772
1	0xbcba11b4	-0.02271352
2	0xbd44948a	-0.04799322
3	0x3d3a88c9	0.045540605
4	0x3d7f2051	0.06228668
5	0xbe0e1225	-0.13874109
6	0xbd066f4d	-0.03282099
7	0x3d477ada	0.048701145
8	0xbc1cfdf2	-0.00958203
9	0x3caec97b	0.021336308
10	0xbc34ea77	-0.011042229
11	0xbc0947a6	-0.008378899
12	0x3d80bb3f	0.06285714
13	0xbc035415	-0.008015652
14	0x3d98059b	0.07422944
15	0x3c19691e	0.009363441
16	0xbdb06f73	-0.08615007
17	0x3d8f418e	0.069949254
18	0x3bc913d4	0.006136397
19	0xbd55e8a6	-0.052223824
20	0xbd1a3d29	-0.037655983
21	0xbdafeaa9	-0.0858968
22	0xbd9921d2	-0.07477154
23	0x3d03c409	0.032169376
24	0x3cb39420	0.021921217
25	0xbc61f77b	-0.013791914
26	0xbe1680bf	-0.1469755
27	0x3b8269a1	0.003979877
28	0x3a318e09	0.0006773179
29	0x3d75941a	0.059955694
30	0xbc28c404	-0.01030064
31	0xbd952730	-0.07282865
32	0xbe1b81bd	-0.1518621
33	0xbd82e47e	-0.06391238
34	0x3a9a092f	0.0011752005
35	0xbd51ae63	-0.0511917
36	0x3e1f774c	0.15572852
37	0x3dafd7e3	0.08586099
38	0x3cb853a6	0.022500824
39	0x3d55c968	0.05219403
40	0x3d3ef91d	0.04662429
41	0xbd842be0	-0.06453681
42	0x3d4d63fc	0.05014418
43	0x3d45cd78	0.048291653
44	0xbb8aca3b	-0.0042355335
45	0xbd3eb229	-0.046556626
46	0xbd994b5d	-0.074850775
47	0xbda84993	-0.08217158
48	0xbddb7311	-0.107153066
49	0xbda97a46	-0.08275275
50	0xbd95eab3	-0.07320156
51	0xbe384d57	-0.17998253
52	0xbdd33a2f	-0.10313832
53	0x3c689c0d	0.014197362
54	0x3c9e851e	0.019350585
55	0xbcd40a33	-0.02588377
56	0x3db2d89e	0.08732723
57	0xbda9561d	-0.08268378
58	0xbe356182	-0.17712978
59	0xbd3ae9da	-0.045633174
60	0xbdc0e12e	-0.094179496
61	0xbe038fae	-0.12847778
62	0xbb8a1823	-0.004214303
63	0xbdbe6310	-0.092962384
64	0xbd98c51d	-0.074594714
65	0xbc852e9c	-0.016257577
66	0xbd9b705c	-0.0758979
67	0xbc73a015	-0.0148697095
68	0xbd731862	-0.059349425
69	0xbe021d45	-0.12706478
70	0xbd8382d9	-0.064214416
71	0xbd80d490	-0.06290543
72	0x3ca00829	0.019535141
73	0x3d185c4e	0.037197404
74	0x3dc7a358	0.09747952
75	0x3d41694a	0.047219552
76	0x3d86a0a8	0.065736115
77	0x3d20f0fe	0.039292328
78	0xbdab4367	-0.08362465
79	0x3ce45d50	0.027876526
80	0x3cd10632	0.02551565
81	0x3d73743d	0.059437025
82	0xbc069e91	-0.008216516
83	0x3e28568c	0.16439265
84	0x3d278af8	0.040904015
85	0xbcd7967b	-0.026316872
86	0xbd2396d9	-0.03993878
87	0xbcbc5bd3	-0.022993004
88	0xbdb977b6	-0.09056036
89	0xbdd3fc18	-0.103508174
90	0x3dda8009	0.10668952
91	0xbd332863	-0.043739688
92	0x3c3a8f5c	0.011386719
93	0xbd56fd7f	-0.052487846
94	0xbdd5b896	-0.104355976
95	0x3cf02fad	0.029319609
96	0x3d31c325	0.043398995
97	0xbb76f2e5	-0.0037681398
98	0x3d4c1e93	0.049833845
99	0xb7174b94	-9.017898e-06
100	0xbd6f5d8d	-0.058438826
101	0x3cb42d07	0.021994127
102	0xbd95d72e	-0.07316433
103	0x3d1e6f2b	0.038680237
104	0xbe0fe5cf	-0.14052509
105	0xbd0e0e6f	-0.034681734
106	0xbc842b2c	-0.016133867
107	0x3c88887c	0.016666643
108	0xbcea5f00	-0.028609753
109	0xbe19d974	-0.15024358
110	0xbd563da9	-0.052304897
111	0xbd32a326	-0.04361262
112	0x3d14bde4	0.036313906
113	0x3cab2604	0.02089215
114	0xbda7faae	-0.0820211
115	0x3dcede6b	0.101010166
116	0x3d69a9c8	0.05704668
117	0xbd3ffaae	-0.046869926
118	0xbe121f53	-0.14269762
119	0x3d96d356	0.07364528
120	0xbe7745f2	-0.24147776
121	0xbd66ec0f	-0.056377467
122	0xbe1952b6	-0.14972958
123	0x3e5d6c1d	0.21623273
124	0xbb988482	-0.004654468
125	0xbe158c9e	-0.14604422
126	0xbdc2c2e5	-0.095098294
127	0xbad3d8cc	-0.0016162633
128	0xbc21f54d	-0.009885144
129	0xbd8b11d5	-0.067905106
130	0x3d8ccbcf	0.06874811
131	0x3cb4c2b0	0.02206549
132	0xbd1f3d49	-0.038876805
133	0xbdb2dbfb	-0.08733364
134	0x3cdeadab	0.02718242
135	0xbdcabc82	-0.09899236
136	0x3dafb192	0.08578791
137	0xbe054205	-0.13013466
138	0xbd4e64d1	-0.050389115
139	0xbce0cb02	-0.027440552
140	0xbd65fe14	-0.05615051
141	0xbd8a2b53	-0.06746545
142	0xbce513f4	-0.027963616
143	0xbd1fa38d	-0.038974334
144	0xbbd771a1	-0.006574825
145	0x3d53a1b7	0.051667895
146	0xbd628c63	-0.055309664
147	0xbd4368c0	-0.04770732
148	0xbd30c1f0	-0.043153703
149	0x3b07f3b1	0.0020744617
150	0xbd7a9f5b	-0.06118713
151	0xbdbc8a25	-0.092060365
152	0xbd8c5b7e	-0.06853388
153	0xbba59bd3	-0.005053976
154	0xbd9b6b7a	-0.07588859
155	0xbcce081d	-0.025150353
156	0xbe1c7228	-0.15277922
157	0xbd96ded3	-0.07366719
158	0x3d96ef39	0.07369847
159	0xbd884a03	-0.066547416
160	0xbd069054	-0.032852486
161	0xbd81642a	-0.06317933
162	0x3e225930	0.15854335
163	0xbb789e78	-0.0037936252
164	0xbca82e18	-0.020529792
165	0xbd925f96	-0.07147138
166	0xbe13cb89	-0.14433111
167	0x3ce6c448	0.028169766
168	0xbe0774c4	-0.13228136
169	0xbb183897	-0.002322709
170	0x3cc929ec	0.024556123
171	0x3c9b3d2a	0.018950064
172	0x3cb0d8d0	0.02158776
173	0xbd579e51	-0.052641217
174	0xbe185397	-0.14875637
175	0x3b8a9cdd	0.0042301253
176	0x3c261702	0.010137321
177	0xbcb76e41	-0.02239144
178	0xbb76523a	-0.0037585632
179	0x3d9ef233	0.077610396
180	0xbc89467e	-0.016757246
181	0xbe03d244	-0.12873179
182	0xbde1c98c	-0.1102477
183	0x3ca48c4f	0.020086436
184	0x3dac32e5	0.08408145
185	0xbc5cc15a	-0.013473833
186	0x3c215b96	0.009848496
187	0xbd16b158	-0.036790222
188	0xbde587eb	-0.11207565
189	0xbc9f9377	-0.019479496
190	0x3c2974e5	0.010342811
191	0x3d099633	0.033590507
192	0x3dd35298	0.10318488
193	0xbd6ed592	-0.058309145
194	0xbc86e2a1	-0.016465487
195	0xbda3cc6e	-0.07997976
196	0x3cdea52d	0.027178371
197	0x3c920147	0.017822875
198	0xbe2b29d7	-0.1671518
199	0xbe1b1aff	-0.15147017
200	0xbd95b71b	-0.07310315
201	0xbda7bb04	-0.08189967
202	0x3aa1c160	0.0012340955
203	0x3b0e809a	0.0021744133
204	0x3d84d1e6	0.064853474
205	0x3be39397	0.0069450843
206	0xbda76ab8	-0.08174652
207	0xbe157a38	-0.14597404
208	0xbc82a15f	-0.015946088
209	0xbbc0c72f	-0.0058831195
210	0xbe44eaae	-0.19230148
211	0x3d51d49a	0.051228143
212	0x3c44727f	0.011990189
213	0xbd9542d0	-0.07288134
214	0x3cd76e80	0.026297808
215	0x3d47ac9b	0.048748594
216	0xbd0f5dc6	-0.03500154
217	0xbd55ce8f	-0.052198943
218	0xbd8c3db5	-0.06847707
219	0xbe05a686	-0.13051805
220	0x3be468bc	0.006970493
221	0xbccc7919	-0.024960088
222	0xbd1df66b	-0.03856508
223	0x3d224d3f	0.03962445
224	0xbd18fd6b	-0.037351053
225	0x3df5f201	0.12009049
226	0xbc0b8600	-0.008515835
227	0xbd115498	-0.035481066
228	0x3d5afa1b	0.053461175
229	0xbdcab4ca	-0.09897764
230	0xbccbe15a	-0.02488773
231	0x3ba3ecb3	0.005002582
232	0xbc391184	-0.01129568
233	0xbc2bd404	-0.01048756
234	0xbceee78f	-0.02916315
235	0xbc9585ed	-0.018252337
236	0xbd8bddc0	-0.06829405
237	0x3d0cf8e5	0.03441705
238	0x3b730e6e	0.0037087458
239	0x3d3b82fa	0.045779206
240	0xbc88460a	-0.01663496
241	0x3d70a8a1	0.058754567
242	0xbdfb4898	-0.122697055
243	0xbd768ae8	-0.060191065
244	0xbda1c59b	-0.078990184
245	0xbd83dd93	-0.06438746
246	0xbe2ea755	-0.1705602
247	0xbe1d9f14	-0.15392715
248	0x3ded70e1	0.115937956
249	0x3da087a9	0.07838375
250	0xbd852604	-0.065013915
251	0xbdf61bef	-0.12017047
252	0xbdbd3d99	-0.092402644
253	0xbc404a9e	-0.01173654
254	0x3d528865	0.051399607
255	0xbb690bb4	-0.0035559954

mu.2.bias f4 [300]
0	0xbdcf1ee1	-0.101133116
1	0xbd73f1c0	-0.059556723
2	0x3dd3b856	0.10337894
3	0x3daa98d8	0.08329934
4	0x3e0f8893	0.14016943
5	0xbe22f857	-0.15915047
6	0xbe7463db	-0.23866217
7	0xbe22507f	-0.1585102
8	0xbec9a097	-0.39380333
9	0xbdfcc536	-0.123423025
10	0xbe02571d	-0.12728544
11	0xbdc43f65	-0.09582404
12	0xbd766ab6	-0.06016036
13	0xbdd3a295	-0.103337444
14	0xbe28ca79	-0.16483487
15	0xbe22cae6	-0.15897712
16	0xbe49cf2d	-0.19707938
17	0xbe302e19	-0.17205085
18	0xbe7fd9b7	-0.24985395
19	0x3d12c3f2	0.0358314
20	0xbe07fe54	-0.13280612
21	0xbdaf7f09	-0.08569152
22	0xbe3596c3	-0.17733292
23	0xbe16044c	-0.14650077
24	0xbd787f1b	-0.060668092
25	0x3adfb4bd	0.0017067414
26	0xbe057b84	-0.13035399
27	0xbd3b1d25	-0.04568209
28	0x3d90778a	0.0705405
29	0xbea054c8	-0.31314683
30	0xbdc5b5e3	-0.09653833
31	0xbdc39a34	-0.09550896
32	0xbdd80f32	-0.10549773
33	0xbe48c24c	-0.19605368
34	0xbde47471	-0.11155022
35	0x3d199d89	0.037503753
36	0xbd252078	-0.040314168
37	0x3d656fd8	0.056014866
38	0x3cd4decc	0.025985144
39	0x3bff6b90	0.007794805
40	0xbe759cce	-0.23985597
41	0x3e1fdf72	0.15612581
42	0xbcbdb46a	-0.023157317
43	0x3d7eae35	0.062177856
44	0xbd505821	-0.050865296
45	0x3c82d599	0.015970992
46	0xbd8b7839	-0.0681004
47	0xbe0c143c	-0.13679594
48	0xbc8d5a26	-0.0172549
49	0xbe621864	-0.22079617
50	0x3d8c937f	0.0686407
51	0xbdee34d3	-0.11631169
52	0xbde6345b	-0.11240455
53	0xbd919dfb	-0.071102105
54	0xbd2a2b65	-0.04154529
55	0xbe603759	-0.21896113
56	0xbd98eddb	-0.07467242
57	0xbd0cfd30	-0.034421146
58	0xbdc14e7d	-0.094387986
59	0xbd7959c0	-0.060876608
60	0xbd5f7628	-0.054556042
61	0xbd6f60f5	-0.058442075
62	0x3a1203a0	0.0005569998
63	0x3d5f021b	0.054445367
64	0xbdcbc3f5	-0.09949485
65	0xbcd3220e	-0.025773074
66	0xbd541f4e	-0.051787667
67	0xbdc83371	-0.09775437
68	0xbe29037d	-0.16505237
69	0x3d232b0e	0.039835982
70	0xbdcd40ee	-0.1002215
71	0xbdea8849	-0.114517756
72	0x3d13d1d4	0.03608878
73	0xbdb4ac0d	-0.088218786
74	0xbc8ec1af	-0.01742634
75	0xbe18cbd1	-0.149215
76	0xbd7d4e61	-0.061842326
77	0x3dd884f9	0.105722375
78	0xbe10eef2	-0.1415365
79	0xbde40ee7	-0.11135655
80	0x3d1e84ff	0.038701054
81	0x3c4130eb	0.011791448
82	0x3df1e7d5	0.118117966
83	0xbce0dbaa	-0.027448494
84	0xbe2afbdd	-0.1669764
85	0x3cc91b24	0.024549074
86	0xbd8f4447	-0.06995445
87	0xbc8eb90b	-0.01742222
88	0x3d21bd94	0.039487436
89	0xbe12f92d	-0.14352866
90	0xbe17afbc	-0.14813131
91	0xbd913ea2	-0.070920244
92	0xbc962501	-0.018328192
93	0xbe81d44e	-0.25357288
94	0x3c755072	0.014972793
95	0xbdfb9c25	-0.122856416
96	0x3d832ed5	0.06405417
97	0xbe187cf5	-0.14891417
98	0xbdd3e5ec	-0.103465885
99	0xbd31032b	-0.04321591
100	0xbd8d42cd	-0.06897507
101	0xbd64968c	-0.055807635
102	0xbc8c4264	-0.017121501
103	0xbe95932d	-0.2921385
104	0xbeba3fe0	-0.36376858
105	0xbe1cb34f	-0.15302776
106	0xbe81b839	-0.25335863
107	0xbe0f4b71	-0.13993622
108	0xbe3b316e	-0.18280575
109	0xbdab5ff0	-0.08367908
110	0x3e6fbb27	0.23411237
111	0xbd7bdbde	-0.06148898
112	0xbdd079ec	-0.10179505
113	0xbdc944bc	-0.09827563
114	0xbde575a6	-0.1120408
115	0x3da197c8	0.07890278
116	0x3c8d4a5d	0.017247373
117	0xbd572c52	-0.0525325
118	0x3da08ca6	0.078393266
119	0xbd173ad7	-0.03692135
120	0xbc9110a2	-0.017708126
121	0xbd061cf5	-0.03274246
122	0xbd4093e9	-0.047016058
123	0xbde490b8	-0.111604154
124	0x3b33a59f	0.002741195
125	0xbcfbe77d	-0.03075003
126	0x3ad5cf77	0.001631244
127	0xbd16052a	-0.03662602
128	0xbe864d8c	-0.2623104
129	0xbd15e286	-0.036592983
130	0x3d5f01a1	0.054444913
131	0xbd598de9	-0.05311385
132	0xbddf4917	-0.10902613
133	0xbd29b94c	-0.04143648
134	0xbea3eb3b	-0.32015404
135	0x3c80c10c	0.015717052
136	0xbdbc7636	-0.092022344
137	0xbdf802f9	-0.12109942
138	0x3d8b94c7	0.068154864
139	0xbecbb7d0	-0.39788675
140	0x3d8224f7	0.06354707
141	0xbcfa0291	-0.030518802
142	0xbdbf2897	-0.09333914
143	0x3db47c2c	0.088127464
144	0xbdf53521	-0.11973024
145	0x3e49700b	0.19671647
146	0xbdad0339	-0.0844788
147	0x3d8a64be	0.06757496
148	0xbe64d8b0	-0.22348285
149	0xbc1efbb9	-0.00970357
150	0xbd1180e9	-0.03552333
151	0xbe07c05c	-0.13256973
152	0xbe4b4ea7	-0.19854222
153	0xbc65bd88	-0.014022239
154	0xbd873edb	-0.066037856
155	0xbddea337	-0.108709745
156	0xbc980940	-0.018559098
157	0xbc17e062	-0.009269806
158	0xbe7f14f5	-0.24910338
159	0xbd9c3870	-0.07627952
160	0xbddebca4	-0.10875824
161	0xbe272635	-0.16323169
162	0xbe0dbf34	-0.1384247
163	0xbd44b824	-0.048027173
164	0xbc0e2654	-0.00867613
165	0xbda9cf6a	-0.08291514
166	0x3e4a6250	0.19764066
167	0xbcde6d5d	-0.027151758
168	0xbe61eab2	-0.22062185
169	0xbda8fa7b	-0.082509
170	0xbe2d8530	-0.16945338
171	0x3e3efaf9	0.18650426
172	0xbdc32d7e	-0.09530161
173	0x3d06d827	0.032920983
174	0x3dd02746	0.10163741
175	0xbd02e476	-0.03195616
176	0x3e01d6e7	0.12679635
177	0xbd04e485	-0.032444496
178	0xbdd21dc1	-0.10259581
179	0xbe1db670	-0.15401626
180	0xbe085a7c	-0.13315767
181	0xbba647e3	-0.0050744875
182	0xbd74b11f	-0.05973923
183	0xbc7b6f70	-0.015346393
184	0x3d901f8c	0.07037267
185	0x3d3a7361	0.04552019
186	0xbda03a8d	-0.07823668
187	0xbde51a6e	-0.11186682
188	0xbe5c20aa	-0.21496835
189	0xbea551dd	-0.3228902
190	0xbe836f43	-0.25670823
191	0xbe845e33	-0.25853118
192	0x3d113340	0.035449266
193	0x3d196cba	0.037457205
194	0xbdf131b2	-0.11777057
195	0xbe0f6aac	-0.14005536
196	0x3dfb30aa	0.12265141
197	0xbcb3d5d0	-0.02195254
198	0xbcafd86b	-0.0214655
199	0x3d109bc3	0.035304796
200	0x3dcc8b81	0.09987546
201	0x3d97d289	0.07413203
202	0x3dbc6dca	0.09200628
203	0x3e225716	0.15853533
204	0xbdc8aeef	-0.09798991
205	0xbd075991	-0.0330444
206	0xbec1cbbe	-0.37850755
207	0xbd24f944	-0.04027678
208	0x3de15802	0.11003114
209	0x3d343126	0.043992184
210	0xbdbe2ab2	-0.09285487
211	0xbcd0ab8c	-0.025472425
212	0xbded6687	-0.11591821
213	0xbda7ba7e	-0.081898674
214	0xbcf2a8a6	-0.029621433
215	0xbda96907	-0.082719855
216	0xbda91d2d	-0.08257518
217	0x3d72510c	0.059159324
218	0xbd9b9d83	-0.07598402
219	0xbd734a06	-0.059396766
220	0xbe112cea	-0.1417729
221	0xbd92fcc0	-0.071771145
222	0xbce2f964	-0.02770681
223	0x3dbacd39	0.09121174
224	0x3e4946f5	0.19655974
225	0xbebc2a2e	-0.3675093
226	0xbbfb879a	-0.007676077
227	0xbd0dfbcc	-0.03466396
228	0xbe942182	-0.28931814
229	0x3dd70ae3	0.10500123
230	0x3bf9670d	0.0076111616
231	0xbd34d22a	-0.04414574
232	0xbde9911d	-0.11404631
233	0xbd8d255d	-0.06891892
234	0xbe603ce4	-0.21898228
235	0x3e006b80	0.12541008
236	0x3d602862	0.054726012
237	0xbda025b3	-0.078196906
238	0x3ca81386	0.020517122
239	0xbd961d6c	-0.073298305
240	0x3d20e9f6	0.039285623
241	0xbe244b5a	-0.1604437
242	0xbd9642eb	-0.07336982
243	0xbd1b5bf0	-0.037929475
244	0xbe8ef804	-0.27923596
245	0x3dab70c1	0.083711155
246	0xbe048be9	-0.12943996
247	0xbd57bb59	-0.052668903
248	0x3d05dda5	0.03268208
249	0xbd6164fc	-0.055027947
250	0xbdfc829a	-0.12329598
251	0xbd98f44c	-0.07468471
252	0x3cfb415e	0.030670818
253	0xbe9407f1	-0.2891231
254	0xbdcad73d	-0.09904335
255	0xbdc85821	-0.09782434

mu.4.weight f4 [3, 300]
0	0x3d1919e2	0.0373782
1	0xbdc4f706	-0.096174285
2	0xbf73b631	-0.9519988
3	0xbd109df1	-0.035306875
4	0xbe8df826	-0.27728385
5	0xbb21b3dc	-0.0024673855
6	0x3d45b977	0.048272576
7	0x3d0465e5	0.032323737
8	0xbe065dbc	-0.13121694
9	0xbe6cad2d	-0.23112936
10	0x3ba64f4b	0.0050753704
11	0x3c71cf76	0.014758935
12	0x3d8e8c9c	0.06960413
13	0xbceec5b4	-0.029147007
14	0xbc6a6a24	-0.014307532
15	0xbce2cf66	-0.027686786
16	0x3da48a3c	0.080341786
17	0x3c83e62d	0.016100967
18	0xbe6f510b	-0.23370759
19	0x3cb256ab	0.021769842
20	0x3dc6eb8b	0.09712895
21	0xbbb75af5	-0.0055955597
22	0x3f2de30a	0.6792456
23	0x3c2f0568	0.010682441
24	0x3bee2159	0.007267159
25	0xbda2a768	-0.079420865
26	0xbc7e117f	-0.015507101
27	0x3c5c955e	0.013463346
28	0xbdd48c46	-0.103783175
29	0xbc614e68	-0.013751604
30	0x3f08bca2	0.5341283
31	0x3c0b98e9	0.008520343
32	0xbe156e12	-0.1459277
33	0xbd941c12	-0.072319165
34	0xbc40c348	-0.011765309
35	0xbe5c3748	-0.21505463
36	0xbcb19612	-0.021678004
37	0xbb90c54e	-0.004418052
38	0x3dd38654	0.103283554
39	0xbc8732ce	-0.016503718
40	0xbd36d939	-0.044640753
41	0xbf3a1035	-0.7268098
42	0x3cd2e611	0.02574447
43	0x3d327d09	0.043576274
44	0x3dc2aa0d	0.09505091
45	0xbdc1bae2	-0.09459473
46	0xbd2f0216	-0.0427266
47	0xbcafe687	-0.021472229
48	0x3c5ce706	0.013482815
49	0xbe2500ee	-0.16113636
50	0xbecbdcbf	-0.39816853
51	0xbd6532bf	-0.0559566
52	0xbd5deb2e	-0.054179363
53	0xbdaa703e	-0.0832219
54	0x3c261393	0.010136503
55	0x3cf3fd13	0.029783761
56	0xbe264046	-0.16235456
57	0xbb584923	-0.0033002577
58	0xbbe1a8de	-0.0068865856
59	0x3ca4095b	0.020023992
60	0xbce4f560	-0.027949035
61	0x3eeef983	0.46674737
62	0x3e2f18fe	0.17099378
63	0xbccbb86e	-0.024868216
64	0x3c301d1e	0.01074913
65	0x3e1d5742	0.15365317
66	0x3b15aa8c	0.002283725
67	0xbe49eda7	-0.19719563
68	0x3d423ac1	0.047419313
69	0xbd601a9b	-0.054712873
70	0x3d3520a5	0.044220585
71	0xbc1914de	-0.009343354
72	0xbdd06bce	-0.10176812
73	0x3e5946df	0.21218441
74	0xbcba9133	-0.022774315
75	0xbda086ab	-0.07838186
76	0x3d551e49	0.052030835
77	0xbdc0073e	-0.09376381
78	0x3df2bad5	0.11852042
79	0x3c1fec90	0.009760991
80	0x3edd4c00	0.43222046
81	0x3e25c9b9	0.16190232
82	0xbcfae00f	-0.030624418
83	0xbed90ccf	-0.42392585
84	0x3d1040f4	0.035218194
85	0x3ed0b0e4	0.40759957
86	0x3c979d1d	0.018507535
87	0x3d96237c	0.07330987
88	0x3d442074	0.047882512
89	0x3bbb0e6f	0.0057085077
90	0xbbe12fdf	-0.0068721618
91	0x3d072de4	0.03300275
92	0x3ba7e1e0	0.005123362
93	0x3d851f8e	0.06500159
94	0x3d2a5261	0.04158247
95	0xbc9cb5ea	-0.019129712
96	0xbd7169ad	-0.05893867
97	0xbbd400d1	-0.006469824
98	0x3d4059b6	0.046960555
99	0xbeb12181	-0.34595874
100	0x3eca9d81	0.3957329
101	0xbb2fef6d	-0.002684559
102	0x3f12915b	0.57253045
103	0x3c8392f3	0.016061282
104	0xbd9cc50c	-0.07654771
105	0x3e7ca504	0.24672323
106	0x3d826c6b	0.06368335
107	0x3d192325	0.037387032
108	0x3e19547b	0.14973633
109	0x3cabf00b	0.020988485
110	0xbf43b646	-0.7645
111	0x3e33463b	0.1750726
112	0x3a46df9f	0.0007586423
113	0xbb94878e	-0.004532761
114	0xbd297af8	-0.041377038
115	0xbefd6dfb	-0.4949797
116	0x3dc3be51	0.09557784
117	0x3cffa255	0.031205336
118	0xbd892c5c	-0.06697914
119	0xbd69f7bb	-0.05712102
120	0x3defc990	0.11708367
121	0x3c9486e9	0.018130736
122	0xbd02542e	-0.03181856
123	0x3bb5ba1e	0.0055458685
124	0x3d6423a6	0.05569806
125	0x3f7ad90e	0.9798745
126	0xbe046176	-0.12927803
127	0xbe238cc2	-0.15971664
128	0x3e2add28	0.16685927
129	0x3cc53c65	0.02407665
130	0x3dea9645	0.11454443
131	0x3feb12b4	1.8365083
132	0x3ae97386	0.0017810918
133	0xb9632e7b	-0.00021665722
134	0xbc219d09	-0.0098641
135	0xbde12a24	-0.10994366
136	0x3b068310	0.0020524897
137	0x3ce4c839	0.027927505
138	0xbd906e2c	-0.070522636
139	0xbdf234ce	-0.11826478
140	0xbd6e1cf4	-0.05813308
141	0x3e1c9d24	0.1529432
142	0x3d7540de	0.059876315
143	0xbe2e7525	-0.17036875
144	0xbc26d943	-0.010183635
145	0xbf90642b	-1.1280569
146	0x3df697d0	0.12040675
147	0xbe9f1540	-0.310709
148	0xbd3808a5	-0.04493012
149	0xbc2d9e7e	-0.0105968695
150	0x3cc2b97f	0.023770092
151	0x3bbeaec1	0.005819172
152	0xbe135ab3	-0.14390068
153	0x3e01202b	0.12609927
154	0x3dcc565e	0.09977411
155	0x3db74657	0.08948963
156	0xbda451f5	-0.080234446
157	0xbdc01f20	-0.093809366
158	0x3d9c27ea	0.076248005
159	0xbe263876	-0.16232476
160	0x3c93e710	0.018054515
161	0x3ed727ba	0.42022496
162	0x3e691843	0.22763161
163	0x3abf10f1	0.0014577192
164	0x3c066dc3	0.00820488
165	0xbb84dba4	-0.0040545035
166	0xbcf184c8	-0.02948226
167	0x3b889426	0.0041680513
168	0x3e3b3dcb	0.18285291
169	0xbe52563c	-0.20540708
170	0x3d1c111a	0.038102247
171	0xbf707980	-0.93935394
172	0xbcdc284c	-0.026874684
173	0x3be8dca5	0.007106381
174	0x3d2ccc72	0.04218716
175	0x3d5389aa	0.05164496
176	0xbe815544	-0.25260365
177	0x3d0cbcc8	0.034359723
178	0xbbff2eea	-0.007787575
179	0x3c9b611c	0.018967204
180	0xbdf516b3	-0.1196722
181	0xbd26b87e	-0.04070329
182	0xbeb95a2b	-0.36201605
183	0xbe6cd7cd	-0.23129196
184	0x3d22d791	0.03975636
185	0x3dca686f	0.098832004
186	0xbcb478fc	-0.022030346
187	0x3f0389a6	0.5138191
188	0xbe999714	-0.29998076
189	0x3eaa9be2	0.33322054
190	0xbcd0109a	-0.025398541
191	0x3d767cc0	0.060177565
192	0x3bd836da	0.0065983357
193	0xbdf12e0a	-0.117763594
194	0xba91f72c	-0.0011136285
195	0x3ab4f218	0.001380506
196	0xbdfad6f2	-0.12248029
197	0x3d1a3708	0.03765014
198	0x3e82f8f1	0.25580552
199	0x3d7f8bd6	0.062389217
200	0xbf044fc5	-0.5168422
201	0xbf7d8173	-0.9902565
202	0x3ca8bd54	0.020598091
203	0x3d44ff8e	0.04809528
204	0xba4a9f24	-0.0007729402
205	0xbda233db	-0.07920047
206	0x3cab25a5	0.020891974
207	0xbc480d6a	-0.012210229
208	0xbea1a14f	-0.3156838
209	0xbf741eb2	-0.9535934
210	0xbd3b48b4	-0.045723632
211	0xbda5ca7d	-0.08095262
212	0x3dc914d1	0.098184235
213	0xbe549b0d	-0.20762272
214	0x3c1a4841	0.009416641
215	0x3b81e86f	0.003964476
216	0x3c13e150	0.009025887
217	0x3de2cc43	0.11074116
218	0x3cbd2858	0.023090526
219	0x3f8a4985	1.0803686
220	0x3dd0ccb2	0.101952925
221	0x3d5a0f04	0.053236976
222	0x3f2adb8e	0.66741264
223	0xbe40f49c	-0.18843311
224	0xbd0061d4	-0.031343296
225	0xbee98b62	-0.45614153
226	0xbcc3968a	-0.023875494
227	0xbe94b5bb	-0.290449
228	0x3d8b1d7f	0.06792735
229	0xbb05f045	-0.0020437401
230	0xbe4bf85c	-0.1991896
231	0x3c4a624f	0.01235254
232	0x3c06a7b5	0.008218695
233	0x3a8dc262	0.0010815377
234	0x3e96d14b	0.29456553
235	0xbe17d2a1	-0.14826442
236	0xbe1a67a6	-0.15078601
237	0xbc8634c1	-0.016382577
238	0x3e9b1fe1	0.3029776
239	0x3e25b703	0.16183095
240	0xbd723f77	-0.059142556
241	0x3cdb8ced	0.026800597
242	0xbd94ac81	-0.07259465
243	0xbd0407d8	-0.032234043
244	0xbd103a91	-0.035212103
245	0x3dc52e37	0.096279554
246	0x3d88e454	0.06684175
247	0xbe3b932c	-0.1831786
248	0x3e25bf01	0.16186143
249	0xbd602e8d	-0.054731894
250	0x3e56d5df	0.20980023
251	0x3c7cea26	0.015436685
252	0xbddf149d	-0.108926035
253	0xbe44341c	-0.19160503
254	0x3d7beff2	0.061508127
255	0x3c1279dc	0.008940186

mu.4.bias f4 [3]
0	0xbd91d992	-0.07121576
1	0xbd07fdff	-0.033201214
2	0x3bab48a7	0.0052271667
